model.pt (torch, 750821 bytes, 12 tensors)

neurons.0.weight f4 [128, 936]
-0.0066824695 -0.012909299 -0.030639675 -0.017811967 0.0046737785 -0.013053573 -0.0146348905 0.004692873
0.01163791 -0.036321815 -0.035187397 0.0026023625 -0.0034620464 -0.026915055 -0.039816342 -0.011513278
-0.0287051 -0.0048222635 0.01963664 -0.010778984 0.013144332 0.018151099 -0.033037547 0.029320063
0.018257188 -0.011553025 -0.007494535 0.0036942675 0.020105092 -0.03739102 -0.03311822 -0.06908427
-0.009215285 -0.045459867 -0.031276416 -0.017906826 0.0035980502 -0.03324386 0.013096631 -0.008655385
0.0004797228 -0.03489698 0.005275094 0.004729064 -0.00036658795 0.017664542 0.02182259 0.02653731
-0.04367302 -0.0018255694 -0.02579467 -0.030426743 -0.016714752 0.01524572 -0.018345758 0.04196313
-0.026946453 0.022099651 -0.029108964 -0.012014362 0.01861046 -0.005733699 -0.019698514 -0.02959177
-0.0037341472 0.012904759 -0.028099537 -0.003710552 -0.039324023 0.02108115 -0.0034120062 0.013309659
-0.024071842 -0.021402232 0.015421539 0.0013087407 -0.020757852 0.031097665 0.028368386 -0.00074435957
0.041107018 0.034357835 -0.016846865 0.022250032 -0.006578113 0.0376945 -0.006131275 0.013120142
-0.0012790282 -0.006773121 -0.016799215 -0.020473551 0.01223517 0.0033334007 0.012409105 -0.028512899
0.026003655 -0.0009895742 -0.021419367 -0.015812518 -0.024413709 -0.007822746 -0.009078549 -0.04334187
-0.014585867 -0.01419187 -0.009161538 -0.018243056 -0.028670864 -0.016437115 -0.010440922 -0.022267219
-0.01508216 -0.0107778255 0.008451477 0.03760616 -0.0422111 -0.016189547 0.02205811 -0.0040261485
-0.031094037 -0.00960552 0.0070220586 -0.0010775649 0.043300305 5.537541e-05 -0.044415437 0.01348805
-0.008529334 -0.02678948 -0.02591094 -0.005754994 0.010271302 0.0381016 -0.01888015 0.018609736
0.011630225 -0.00898876 0.013197973 -0.023051828 -0.009558332 0.017480694 0.008648345 -0.022198891
0.033536762 0.019874206 0.024966653 0.00894086 0.013479136 0.040304124 0.01638569 -0.029029978
0.034077484 0.020466372 0.019029504 -0.02031206 0.00087754475 -0.004924881 0.010611905 -0.03855653
0.008967726 0.053150196 0.011231121 0.031516436 0.00922858 0.03474308 0.024972623 -0.0040680896
-0.008105166 -0.039097093 0.027141003 -0.049977686 0.025947744 -0.046501294 -0.02094453 -0.029547527
0.045791905 -0.0019555641 -0.011244266 -0.013756792 0.017555797 0.012339593 0.036401596 0.018918082
0.01351541 -0.00878501 0.0018030195 0.007386231 -0.029737676 0.010771464 0.01886649 0.034018833
-0.0007684682 0.03378472 -0.013540593 0.004072833 -0.023170711 -0.0252689 -0.025294278 -0.0359737
-0.021081237 -0.01796302 -0.019735923 0.021879598 0.001072233 -0.002029402 -0.019415542 0.02989368
-0.015561277 -0.019302363 0.012054191 -0.012105833 -0.011180136 0.034466486 -0.0030254324 0.017809615
0.018365264 0.0147587145 -0.009593414 -0.01030444 0.019496458 0.0110819945 -0.020731635 -0.027114447
-0.032851413 -0.020650215 -0.026404297 0.001868046 -0.00021226007 0.0079934625 -0.037814822 -0.043318566
-0.011958319 0.025156002 -0.0020908145 -0.008462754 0.004328267 0.026692353 0.0021961592 -0.00028799466
0.020794624 0.0044687646 -0.02398105 -6.5884684e-05 -0.0005191999 0.015868958 -0.0087508485 0.01955303
0.0064535593 0.003581397 0.015836056 -0.044540584 0.019973582 -0.005598432 0.012585806 0.003089793
00000000: 9ef8 dabb 8681 53bc 0e00 fbbc 67ea 91bc
00000010: 7f26 993b a7de 55bc 2ec7 6fbc acc6 993b
00000020: efac 3e3c 2fc6 14bd a920 10bd 668c 2a3b
00000030: 80e3 62bb f67c dcbc 7616 23bd 30a2 3cbc
00000040: f526 ebbc 1404 9ebb 05dd a03c 569a 30bc
00000050: 535b 573c 9db1 943c 6152 07bd a130 f03c
00000060: 1990 953c e648 3dbc b794 f5bb 861b 723b
00000070: 6fb3 a43c 5427 19bd f8a6 07bd 0e7c 8dbd
00000080: b5fb 16bc 2034 3abd b31b 00bd 56b1 92bc
00000090: 44cd 6b3b b72a 08bd 4093 563c 51cf 0dbc
000000a0: 4e83 fb39 23f0 0ebd b2da ac3b 44f6 9a3b
000000b0: 9a32 c0b9 3bb5 903c 4ac5 b23c c664 d93c
000000c0: 7be2 32bd f247 efba 584f d3bc 8141 f9bc
000000d0: 60ed 88bc 2fc9 793c d849 96bc 88e1 2b3d
000000e0: cfbe dcbc 540a b53c ec75 eebc e3d7 44bc
000000f0: f774 983c c1e1 bbbb c75e a1bc 716a f2bc
00000100: 98b8 74bb 7b6e 533c 0031 e6bc bb2c 73bb
00000110: 3a12 21bd 60b2 ac3c f79b 5fbb c210 5a3c
00000120: 5032 c5bc bc53 afbc 9faa 7c3c 0d8a ab3a
00000130: 5f0c aabc 88c0 fe3c d164 e83c 2021 43ba
00000140: d55f 283d cdba 0c3d 7002 8abc b345 b63c
00000150: 368d d7bb 8c65 1a3d dde8 c8bb ddf5 563c
00000160: 11a5 a7ba 0ff1 ddbb 829e 89bc 26b8 a7bc
00000170: 0676 483c 2f75 5a3b 8f4f 4b3c e293 e9bc
00000180: 9e05 d53c 9ab4 81ba ab77 afbc 4189 81bc
00000190: 42ff c7bc fa2a 00bc 32be 14bc 3f87 31bd
000001a0: 8ff9 6ebc 0485 68bc 471a 16bc 7672 95bc
000001b0: 29df eabc 21a7 86bc 6710 2bbc be69 b6bc
000001c0: 2a1b 77bc 7a95 30bc 1078 0a3c eb08 1a3d
000001d0: 8ce5 2cbd f19f 84bc 36b3 b43c c8ed 83bb
000001e0: ecb8 febc 7960 1dbc 4c19 e63b 143d 8dba
000001f0: a95b 313d e542 6838 f6ec 35bd fbfc 5c3c
00000200: 9fbe 0bbc 9d75 dbbc 2e43 d4bc 6494 bcbb
00000210: f748 283c 6c10 1c3d 8baa 9abc 7273 983c
00000220: b38c 3e3c 9845 13bc 503c 583c 30d7 bcbc
00000230: 8d9a 1cbc ac33 8f3c cab1 0d3c 73da b5bc
00000240: d85d 093d 3bcf a23c de86 cc3c af7c 123c
00000250: 98d7 5c3c f015 253d 483b 863c 47d0 edbc
00000260: d594 0b3d 18a9 a73c c3e3 9b3c 7a65 a6bc
00000270: 080b 663a e560 a1bb 8edd 2d3c 74ed 1dbd
00000280: 5eed 123c 05b4 593d bc02 383c 6117 013d
00000290: 7833 173c c34e 0e3d 6393 cc3c 9c4d 85bb
000002a0: 88cb 04bc 4624 20bd cf56 de3c 67b5 4cbd
000002b0: 5d90 d43c 2478 3ebd dd93 abbc a80d f2bc
000002c0: 4b90 3b3d ec28 00bb df39 38bc 2b64 61bc
000002d0: 2dd1 8f3c 012c 4a3c d719 153d 18fa 9a3c
000002e0: bd6f 5d3c 01ef 0fbc 4c53 ec3a 3208 f23b
000002f0: 6d9c f3bc cb7a 303c e68d 9a3c 5557 0b3d
00000300: 0773 49ba d961 0a3d 5dd9 5dbc 6675 853b
00000310: 81d0 bdbc b900 cfbc f235 cfbc 2959 13bd
00000320: 8fb2 acbc 2f27 93bc 3bad a1bc d83c b33c
00000330: 2b8a 8c3a b7ff 04bb 580d 9fbc 97e3 f43c
00000340: baf4 7ebc fd1f 9ebc f17e 453c 8b57 46bc
00000350: e42c 37bc bb2c 0d3d 5546 46bb 78e5 913c
00000360: c072 963c 89ce 713c b22d 1dbc f4d3 28bc
00000370: 09b7 9f3c 4191 353c 64d5 a9bc 1e1f debc
00000380: 348f 06bd a42a a9bc d34d d8bc 39d9 f43a
00000390: 2192 5eb9 03f7 023c b7e3 1abd cf6e 31bd
000003a0: d3ec 43bc f613 ce3c 0c06 09bb 5da7 0abc
000003b0: 23d4 8d3b eca9 da3c 70ed 0f3b fdfd 96b9
000003c0: 7d59 aa3c b76e 923b e873 c4bc 922b 8ab8
000003d0: ea1a 08ba 9eff 813c b85f 0fbc ad2d a03c
000003e0: 6178 d33b dfb5 6a3b 9eba 813c 3070 36bd
000003f0: a39f a33c 0d73 b7bb b234 4e3c 207e 4a3b

neurons.0.bias f4 [128]
0.022236066 0.009420647 0.022614645 0.018827103 -0.016779473 -0.01357403 -0.007145336 -0.027998298
0.00743791 -0.008466891 -0.035370693 0.029237472 0.0047102864 -0.015609335 0.019279685 -0.0044877715
0.0043022553 -0.014212137 0.0008220643 -0.011403418 -0.023498653 -0.025055218 0.031641085 0.029536068
0.0059355167 -0.007187571 0.029093053 -0.016053222 0.009503211 -0.016397476 0.026677946 0.023344196
0.025079932 0.019319886 0.0047722645 -0.017640576 -0.011965611 0.0080412775 -0.022370843 0.019350655
-0.007862022 -0.022144247 -0.031687226 0.019388933 -0.028121404 0.011205224 0.014522341 0.012271194
-0.016555503 0.021292325 -0.008764113 -0.010527078 -0.020577487 0.014528929 0.01811205 0.026925903
0.03151986 -0.002306696 0.01314712 -0.009616216 -0.005800513 -0.00357152 -0.018257529 -0.0128061455
0.029666308 0.0019447657 -0.0111871725 -0.008741789 -0.028773408 0.032208797 0.035459027 0.0042039063
0.0065967054 -0.018734269 0.0143651925 -0.02961117 0.016153265 -0.010235059 -0.02216478 0.015628546
0.01732884 0.0095916465 0.02866369 0.008896691 0.007927638 -0.024888758 -0.02283014 -0.029088946
-0.019820604 -0.024736954 0.011754584 0.028328728 0.012824904 -0.024689274 -0.031541508 0.020864403
0.0028109099 -0.013266931 -0.00015506998 0.021845795 0.015890706 0.0032457544 -0.02085931 0.034014396
0.00073331594 -0.024842117 0.0317166 0.015536016 0.0058813305 0.0041654673 0.028423853 -0.0022747014
-0.0018268675 -0.026217464 0.013118358 0.013914071 -0.030456232 -0.023582904 0.017924419 0.019976351
0.0060767205 0.028721359 0.021106377 0.013536661 -0.029224807 -0.0052670264 -0.025054954 0.004277367
00000000: 6928 b63c 0f59 1a3c 5942 b93c 4c3b 9a3c
00000010: 1b75 89bc 9c65 5ebc 6c23 eabb b05c e5bc
00000020: b6b9 f33b b7b8 0abc dce0 10bd 6c83 ef3c
00000030: bf58 9a3b 4cbe 7fbc 6ef0 9d3c 280e 93bb
00000040: eff9 8c3b 06da 68bc cd7f 573a 67d5 3abc
00000050: 3f80 c0bc 9a40 cdbc 159a 013d a0f5 f13c
00000060: b97e c23b b785 ebbb 8e54 ee3c 0c82 83bc
00000070: 5bb3 1b3c 0054 86bc b58b da3c 543c bf3c
00000080: 6e74 cd3c bd44 9e3c a860 9c3b f882 90bc
00000090: 690b 44bc 90bf 033c 0f43 b7bc 4485 9e3c
000000a0: b6cf 00bc da67 b5bc 77ca 01bd 8ad5 9e3c
000000b0: dc5e e6bc 1e96 373c 1def 6d3c 1e0d 493c
000000c0: 689f 87bc 3e6d ae3c 5b97 0fbc c479 2cbc
000000d0: 1e92 a8bc bf0a 6e3c b95f 943c b693 dc3c
000000e0: f81a 013d f02b 17bb 0567 573c 558d 1dbc
000000f0: 3b12 bebb 2a10 6abb d090 95bc ded0 51bc
00000100: c206 f33c 82e7 fe3a 674a 37bc b839 0fbc
00000110: 36b6 ebbc 5fed 033d 7c3d 113d ecc0 893b
00000120: 2d29 d83b 9c78 99bc fc5b 6b3c 2093 f2bc
00000130: da53 843c f3b0 27bc ea92 b5bc 7007 803c
00000140: 36f5 8d3c 4826 1d3c 1dd0 ea3c 6dc3 113c
00000150: ece2 013c 82e3 cbbc 4606 bbbc f14b eebc
00000160: d25e a2bc 27a5 cabc 4c96 403c a611 e83c
00000170: 8c1f 523c 2941 cabc ab31 01bd d3eb aa3c
00000180: 3e37 383b 8b5d 59bc 489a 22b9 f4f5 b23c
00000190: 3a2d 823c b9b6 543b 25e1 aabc ae52 0b3d
000001a0: 003c 403a b281 cbbc 44e9 013d c68a 7e3c
000001b0: 2db8 c03b 797e 883b 24d9 e83c 2813 15bb
000001c0: 8073 efba 02c6 d6bc 62ee 563c d8f7 633c
000001d0: 597f f9bc ef30 c1bc 3bd6 923c 72a5 a33c
000001e0: 3a1f c73b 0e49 eb3c 48e7 ac3c dfc8 5d3c
000001f0: dd68 efbc 0597 acbb 0c40 cdbc 2829 8c3b

neurons.2.weight f4 [128, 128]
0.00072113384 0.08099738 0.06867891 0.0811257 -0.052841753 0.08024224 0.06852733 0.012239426
0.04406089 -0.056269854 0.0005152591 -0.0087536955 0.070311755 0.08226263 -0.04760101 0.044027563
0.027682034 -0.07423963 0.050494798 -0.04741697 0.056437556 0.08523141 -0.06259494 -0.010852587
-0.0539718 -0.0533475 0.03648453 -0.024026973 -0.003781868 0.032982163 0.06382754 0.06925885
-0.06970309 -0.011070275 -0.01910694 0.04962935 -0.012907882 0.021203987 -0.0035571374 0.025196545
0.04364723 -0.059409443 0.039898418 -0.050175644 -0.06827681 0.038444545 -0.07661579 -0.018491043
-0.080838434 0.02610305 0.0742369 0.067876704 -0.08737967 -0.04253478 0.10445471 0.034754213
0.05576548 -0.07266972 0.011726027 0.05240159 0.030744882 0.030353187 0.02564893 -0.040452708
0.027739786 -0.09459916 -0.004677849 -0.051155437 0.033369403 0.08310487 0.008301438 0.025850538
0.05232475 0.031195672 0.08329855 -0.06552887 -0.040857133 0.039146222 0.0871577 -0.0015744257
0.024628026 0.012019771 0.03423533 0.0037693912 0.05028487 -0.0031071082 -0.116666846 -0.08023484
0.026681997 0.0070864633 0.038969554 -0.05835349 -0.08657776 -0.07022716 0.04317876 -0.0057818126
-0.021026436 0.08566463 0.027637905 0.016951673 -0.06879714 -0.028876426 -0.039819393 0.016056731
-0.012168102 -0.053937774 -0.08571733 -0.017849457 -0.05716626 0.011135323 -0.011689353 -0.07891193
0.07840372 0.033492163 0.03765254 -0.048458476 0.05436507 -0.064171955 0.03337119 -0.012424407
0.062919915 0.019232254 -0.037869148 -0.030459762 -0.012589946 0.010448341 -0.06875332 -0.012778402
-0.07972675 0.04485399 0.020322848 -0.08107636 0.030527743 -0.055678736 -0.06443599 0.03454247
-0.011071035 -0.082719944 -0.10031835 -0.13663678 -0.0025579873 -0.027653981 -0.0644537 0.020975143
0.08081632 0.0877761 0.018408958 0.03681634 -0.034973696 0.046419535 0.09363758 0.035920326
0.06886715 0.07069723 -0.04372998 0.06537231 -0.006579135 0.0107799545 -0.036099438 -0.06339544
0.05491105 -0.0064895726 0.0011496991 0.047872446 0.006259772 0.004020117 0.0836949 0.03378035
0.0085896095 -0.042754132 0.07536634 -0.08802364 0.07339915 0.09327865 -0.081528 0.03865706
0.021476837 0.016330868 0.036430597 0.05689054 0.042092767 -0.04454657 -0.062486317 0.013503918
0.07308199 0.023689069 0.031761862 -0.044033088 0.027898848 0.0072577307 -0.00021508572 0.05552591
0.032580115 0.042629246 0.0043215896 0.012365123 -0.025282003 -0.02947879 -0.045280583 0.07546369
0.005558661 0.072080575 0.12640637 0.06337168 0.06979505 0.026561912 0.063494265 0.0700958
0.08805758 -0.07832448 -0.030207284 -0.07407933 0.064542934 0.04119613 -0.06333689 0.03220665
-0.029764924 0.024108618 -0.037881624 -0.06273803 0.037460607 0.06454742 0.082975335 0.061330073
0.066177584 -0.057353023 -0.027433839 -0.040039126 -0.075843275 -0.018042045 0.039418675 -0.032043602
-0.064505056 -0.07786417 0.076786615 0.04562641 0.025887074 -0.07808045 -0.013583811 0.084137626
-0.026428476 -0.038875125 0.040948715 0.009740643 0.05062062 -0.013709359 0.040605728 0.014242835
0.028769609 -0.04967882 0.04803264 0.0028555796 0.06854961 0.09266888 0.013167767 0.025467156
00000000: 790a 3d3a f4e1 a53d 87a7 8c3d 3b25 a63d
00000010: 9870 58bd 0b56 a43d 0f58 8c3d e087 483c
00000020: 3179 343d 387b 66bd 7412 073a a96b 0fbc
00000030: 9cff 8f3d 4f79 a83d 47f9 42bd 3f56 343d
00000040: 6fc5 e23c f20a 98bd a2d3 4e3d 4c38 42bd
00000050: 112b 673d ce8d ae3d c731 80bd 0dcf 31bc
00000060: 8911 5dbd e882 5abd cd70 153d 37d4 c4bc
00000070: 37d9 77bb 4e18 073d 03b8 823d 95d7 8d3d
00000080: 7ec0 8ebd 1960 35bc 2886 9cbc 2548 4b3d
00000090: 957b 53bc fcb3 ad3c dd1e 69bb fc68 ce3c
000000a0: 70c7 323d 5157 73bd 866c 233d fa84 4dbd
000000b0: b6d4 8bbd 0778 1d3d bde8 9cbd 877a 97bc
000000c0: 9f8e a5bd 10d6 d53c 8409 983d f102 8b3d
000000d0: 1df4 b2bd f338 2ebd 5aec d53d 6f5a 0e3d
000000e0: 586a 643d ddd3 94bd 861e 403c 0da3 563d
000000f0: b1dc fb3c 3fa7 f83c b41d d23c bdb1 25bd
00000100: 8c3e e33c 34bd c1bd a448 99bb 5d88 51bd
00000110: 5bae 083d e332 aa3d c102 083c 82c4 d33c
00000120: 7a52 563d 118e ff3c 6e98 aa3d 0034 86bd
00000130: cf59 27bd ca57 203d bc7f b23d f65c ceba
00000140: b7c0 c93c 93ee 443c 583a 0c3d e407 773b
00000150: 82f7 4d3d a0a0 4bbb 07ef eebd 2a52 a4bd
00000160: 3494 da3c 9035 e83b 8a9e 1f3d 1204 6fbd
00000170: ae4f b1bd 42d3 8fbd 36dc 303d 5c75 bdbb
00000180: a23f acbc f070 af3d e368 e23c 3cde 8a3c
00000190: 84e5 8cbd 418e ecbc a919 23bd 6889 833c
000001a0: b85c 47bc dbed 5cbd 918c afbd 0639 92bc
000001b0: 2b27 6abd ee70 363c b384 3fbc 949c a1bd
000001c0: 2192 a03d 142f 093d 8d39 1a3d 657c 46bd
000001d0: e8ad 5e3d 966c 83bd 3bb0 083d bd8f 4bbc
000001e0: 28dc 803d f68c 9d3c ae1c 1bbd c086 f9bc
000001f0: 1046 4ebc 852f 2b3c 8ace 8cbd 815c 51bc
00000200: c747 a3bd d1b8 373d 1a7c a63c 5d0b a6bd
00000210: 5115 fa3c 630f 64bd 04f7 83bd 687c 0d3d
00000220: 4963 35bc 1369 a9bd b573 cdbd 83ea 0bbe
00000230: e8a3 27bb 9a8a e2bc 4d00 84bd 10d4 ab3c
00000240: 0783 a53d f5c3 b33d 62ce 963c bbcc 163d
00000250: 9440 0fbd 6922 3e3d 0fc5 bf3d 3121 133d
00000260: 380a 8d3d b6c9 903d 351e 33bd ebe1 853d
00000270: c995 d7bb 689e 303c 01dd 13bd 78d5 81bd
00000280: 69ea 603d 7ba6 d4bb 80b1 963a e615 443d
00000290: c61e cd3b 30bb 833b 3b68 ab3d 445d 0a3d
000002a0: 6fbb 0c3c f51e 2fbd ab59 9a3d bd45 b4bd
000002b0: 4b52 963d e008 bf3d 27f8 a6bd de56 1e3d
000002c0: 31f0 af3c 50c8 853c 4038 153d 0e06 693d
000002d0: 7769 2c3d 7776 36bd a7f1 7fbd 8a3f 5d3c
000002e0: 03ac 953d 940f c23c ba18 023d 0a5c 34bd
000002f0: 208c e43c 42d2 ed3b a288 61b9 236f 633d
00000300: ba72 053d 019c 2e3d 1f9c 8d3b 1697 4a3c
00000310: 341c cfbc 817d f1bc 2278 39bd b58c 9a3d
00000320: 6e25 b63b fb9e 933d ac70 013e 03c9 813d
00000330: b5f0 8e3d 5e98 d93c 4809 823d 638e 8f3d
00000340: 8857 b43d 9668 a0bd 4475 f7bc e7b6 97bd
00000350: 162f 843d 46bd 283d c5b6 81bd 1feb 033d
00000360: 92d5 f3bc 707f c53c c329 1bbd cc7c 80bd
00000370: 4b70 193d 7031 843d f9ee a93d 3e35 7b3d
00000380: 1d88 873d 01eb 6abd eebc e0bc 1100 24bd
00000390: b853 9bbd e9cc 93bc 7a75 213d 2740 03bd
000003a0: 3a1b 84bd 4077 9fbd 4d42 9d3d c2e2 3a3d
000003b0: 2111 d43c a5e8 9fbd a28e 5ebc 5950 ac3d
000003c0: 8880 d8bc 863b 1fbd d7b9 273d 3897 1f3c
000003d0: 9157 4f3d 389d 60bc 3152 263d c85a 693c
000003e0: 3eae eb3c 057c 4bbd e0bd 443d ad24 3b3b
000003f0: bd63 8c3d 2fc9 bd3d 9ebd 573c 7fa0 d03c

neurons.2.bias f4 [128]
-0.044115733 -0.013316047 0.02148248 -0.037761033 0.022861175 0.05710317 0.0012481278 0.04311257
0.056908198 0.00066758675 -0.012172262 0.03724125 -0.058112606 0.07912006 -0.014707144 -0.021407159
0.029131979 0.024209242 0.036137365 -0.026794784 -0.04012261 0.064649135 0.041733544 0.02539445
0.03491323 -0.019843664 0.02784219 -0.0061147287 -0.075623795 0.006486469 -0.08666001 0.017210476
-0.07528592 -0.039206136 0.05620236 0.08570888 -0.009906329 -0.044046026 0.05353485 0.029656371
-0.0061582336 0.042687584 -0.041397147 0.084325396 -0.018134613 -0.07056085 0.054614928 -0.05488181
0.018079001 -0.08005408 -0.05036293 -0.008757989 0.006528424 0.0017469359 0.05766583 0.06899388
-0.04999951 -0.044077802 -0.016482553 -0.0773732 -0.0041346685 0.00521674 0.016021766 0.007826713
0.051742572 0.07595324 0.06298555 0.067788914 0.015934188 -0.05719073 0.07541692 -0.036274523
0.018027004 -0.05855702 0.046223458 0.01723642 0.06998772 0.052632827 0.08213941 -0.08014493
-0.03933393 0.01312966 0.066672154 -0.047916744 0.0051392904 0.009828623 0.05516767 -0.050110735
0.06157666 0.042258378 0.08440693 -0.08462124 -0.08154132 0.008867496 0.0073330533 0.033452783
0.022567445 0.085670516 0.08270265 -0.08566462 0.032754496 -0.07184515 -0.038973454 0.0072984253
-0.04306137 0.03789206 -0.07166591 -0.036280807 -0.07145231 -0.06397065 0.06720297 -0.08248029
0.07150368 -0.016301608 -0.047251616 0.07545459 0.08383731 0.06804543 -0.04235689 -0.0007790052
-0.05690675 0.0766953 -0.04514698 0.04632466 -0.062975734 -0.023032809 -0.07213704 0.024869166
00000000: b3b2 34bd 8d2b 5abc 07fc af3c 50ab 1abd
00000010: 5c47 bb3c 03e5 693d 3898 a33a ce96 303d
00000020: 9218 693d fd00 2f3a 2b6e 47bc 488a 183d
00000030: 7c07 6ebd b309 a23d 3cf6 70bc 115e afbc
00000040: 30a6 ee3c 7652 c63c c604 143d bc80 dbbc
00000050: 9b57 24bd c466 843d cbf0 2a3d 0608 d03c
00000060: 2d01 0f3d 2e8f a2bc 4e15 e43c 105e c8bb
00000070: a6e0 9abd 728c d43b ce7a b1bd fcfc 8c3c
00000080: 812f 9abd 9d96 20bd 7234 663d 2388 af3d
00000090: 284e 22bc 9b69 34bd 5c47 5b3d ebf1 f23c
000000a0: 02cb c9bb 2dd9 2e3d 0e90 29bd cbb2 ac3d
000000b0: 0a8f 94bc 3582 90bd e7b3 5f3d c0cb 60bd
000000c0: 6a1a 943c 65f3 a3bd 5c49 4ebd ab7d 0fbc
000000d0: 64ec d53b 71f9 e43a 0133 6c3d aa4c 8d3d
000000e0: 49cc 4cbd ed8a 34bd 6b06 87bc d775 9ebd
000000f0: 1d7c 87bb 30f1 aa3b 1440 833c 9d3b 003c
00000100: 05f0 533d 5f8d 9b3d 91fe 803d ead4 8a3d
00000110: 6a88 823c d440 6abd 3074 9a3d 9894 14bd
00000120: 5ead 933c 7cd9 6fbd cf54 3d3d 6533 8d3c
00000130: b955 8f3d 8595 573d b538 a83d 0623 a4bd
00000140: 9d1c 21bd c91d 573c 698b 883d 5944 44bd
00000150: 7e67 a83b 3c08 213c 7ff7 613d ea40 4dbd
00000160: cf37 7c3d 1f17 2d3d 8add ac3d e74d adbd
00000170: 23ff a6bd f948 113c 1c4a f03b c905 093d
00000180: 5ddf b83c 0674 af3d 0260 a93d ef70 afbd
00000190: 9429 063d 8d23 93bd a1a2 1fbd a127 ef3b
000001a0: 1e61 30bd b434 1b3d 94c5 92bd 2f9b 14bd
000001b0: 9755 92bd 0b03 83bd b6a1 893d 6deb a8bd
000001c0: 8570 923d f38a 85bc e98a 41bd f087 9a3d
000001d0: e5b2 ab3d 675b 8b3d 6b7e 2dbd 2736 4cba
000001e0: 0d17 69bd 6d12 9d3d 0aec 38bd edbe 3d3d
000001f0: 6cf9 80bd 4daf bcbc 96bc 93bd 6cba cb3c

neurons.4.weight f4 [128, 128]
-0.07532741 -0.057774935 -0.042513162 0.05781384 0.050743904 0.021380475 0.06807501 0.03189455
-0.095577426 0.08801744 -0.015957419 -0.054740895 -0.035814404 0.058952622 0.07316242 -0.082421154
0.08817191 0.016399793 0.07878215 -0.0446152 0.07334153 -0.033178706 0.00183813 0.027116477
-0.07252173 0.017577274 -0.048170146 -0.08061648 0.055296313 -0.035033062 -0.016160144 0.106132954
0.08990587 -0.07165351 0.07900505 -0.085832976 -0.07585183 -0.011996807 -0.035278406 -0.025852699
-0.022259265 -0.06607944 0.070985876 0.09624127 0.08881894 0.02932769 -0.048752274 0.043718256
-0.047749236 -0.07523316 0.04236235 -0.034728333 -0.07536547 0.07506662 0.04604575 0.05732872
0.092664234 -0.045098815 -0.053267635 -0.06283512 -0.045416486 0.046419796 -0.04092617 0.016812855
-0.036247518 -0.042751163 -0.07656807 0.087351695 0.034831166 0.012234359 0.0803805 0.049242727
-0.005639846 0.0123122735 -0.08206624 -0.101233736 -0.027521722 0.030604422 0.010757409 0.08807583
-0.026560381 0.056234155 0.08976695 0.071303815 0.029995516 0.062465385 -0.060045555 -0.014398074
0.06799615 -0.06891326 -0.026470583 0.076201685 0.023971988 -0.032843646 0.04693016 -0.024238527
0.08444404 0.01968188 0.045285895 0.03315242 -0.014284103 0.07374091 0.028346742 0.007328035
-0.0058450922 0.028591959 0.050071795 0.01030799 0.046176188 0.01767433 -0.06679609 0.013746166
0.059395663 0.08220319 -0.0011763984 -0.02297684 0.064291954 -0.011881199 0.051031116 0.03443737
-0.07628502 0.0027015214 0.048523203 0.04165967 0.0689359 -0.025908364 0.037744056 0.0051913923
-0.03276608 0.05741252 0.07657886 -0.045536228 0.037215333 0.053820524 0.0453255 0.042802
-0.05394397 0.061805576 0.0088743605 -0.017799545 0.015253964 0.06023678 0.07248798 -0.011748993
0.06425045 0.10808625 0.04184845 -0.04435125 0.056823958 0.055289224 0.020993592 0.044741377
-0.037333727 0.038106423 -0.028782062 -0.017851494 0.0060726395 -0.016031172 0.020394182 -0.021176131
0.012956669 0.050012287 -0.040432878 -0.050658986 -0.031168537 0.04698743 0.021458855 -0.063177034
-0.0058840327 0.0196457 0.037482742 -0.0835516 -0.014653246 0.0480834 -0.09198535 -0.012451531
-0.0027178223 0.026976852 0.006482568 0.027686315 0.03624773 -0.08169233 0.054345913 -0.08685767
0.0313664 -0.027386365 0.016891805 0.050685775 0.059427034 0.10344664 -0.058405142 -0.058069125
0.02196992 0.099485226 0.030651264 -0.0146376705 -0.06275746 0.033272333 -0.0007983024 -0.03349247
0.03216529 0.0031859502 -0.05072527 -0.017294705 -0.06946556 0.02055247 0.029122213 0.08220998
-0.06406607 -0.07712665 0.026275996 -0.010453193 -0.07838363 -0.10623229 -0.061177 0.007361927
0.083517805 -0.051925942 0.06630464 -0.020383077 0.0006190701 0.07660642 -0.08134007 -0.04295983
-0.010053979 -0.0062497505 -0.08616921 0.046274498 -0.019743988 -0.10100196 0.020943215 -0.0634627
-0.04422534 0.031758454 0.054491684 -0.02323985 -0.05874131 -0.05399418 0.044516675 0.028034091
0.06484396 -0.015539419 -0.00024620042 0.05119673 -0.021292953 0.08243418 -0.08755253 -0.042833816
-0.036861748 0.0057853917 -0.07280806 0.014509484 0.012867784 0.0695479 0.0026185908 0.06331946
00000000: 4245 9abd 69a5 6cbd 4822 2ebd 35ce 6c3d
00000010: d7d8 4f3d 1b26 af3c e96a 8b3d dca3 023d
00000020: 19be c3bd 7d42 b43d 22b9 82bc fd37 60bd
00000030: 20b2 12bd 4e78 713d 2ed6 953d 6ccc a8bd
00000040: 7993 b43d dc58 863c 8958 a13d 6ebe 36bd
00000050: 1634 963d 65e6 07bd 68ed f03a 6023 de3c
00000060: 4686 94bd 37fe 8f3c 0f4e 45bd 411a a5bd
00000070: 637e 623d d47e 0fbd 4762 84bc 3c5c d93d
00000080: 9220 b83d 13bf 92bd 66cd a13d 33c9 afbd
00000090: 3458 9bbd 418e 44bc 1780 10bd 0ac9 d3bc
000000a0: 1059 b6bc a854 87bd 0b61 913d 251a c53d
000000b0: b4e6 b53d a040 f03c 77b0 47bd ea11 333d
000000c0: b494 43bd d813 9abd 2584 2d3d 4c3f 0ebd
000000d0: 3659 9abd 87bc 993d 789a 3c3d 85d1 6a3d
000000e0: bfc6 bd3d 89b9 38bd 2a2f 5abd b3af 80bd
000000f0: a306 3abd af22 3e3d 33a2 27bd 1dbb 893c
00000100: 4778 14bd d81b 2fbd b8cf 9cbd 72e5 b23d
00000110: 20ab 0e3d 9f72 483c 889e a43d beb2 493d
00000120: 75ce b8bb 6bb9 493c 5812 a8bd a253 cfbd
00000130: 3c75 e1bc 20b6 fa3c d83f 303c 1a61 b43d
00000140: 2895 d9bc c955 663d bcd7 b73d bc07 923d
00000150: 28b9 f53c b4db 7f3d 54f2 75bd e6e5 6bbc
00000160: 9141 8b3d 6522 8dbd d6d8 d8bc a10f 9c3d
00000170: e760 c43c 0f87 06bd d739 403d e08f c6bc
00000180: fff0 ac3d e53b a13c b47d 393d d5ca 073d
00000190: df07 6abc 7905 973d 6d37 e83c 0320 f03b
000001a0: 3088 bfbb af39 ea3c 1518 4d3d d8e2 283c
000001b0: 3e23 3d3d c2c9 903c 63cc 88bd 9937 613c
000001c0: de48 733d 255a a83d 6131 9aba ed39 bcbc
000001d0: 80ab 833d 5ca9 42bc 0106 513d 330e 0d3d
000001e0: 523b 9cbd 020c 313b 44c0 463d 55a3 2a3d
000001f0: 442e 8d3d c73d d4bc 8399 1a3d 8e1c aa3b
00000200: ba35 06bd 6429 6b3d 61d5 9c3d 3284 3abd
00000210: 1b6f 183d e972 5c3d 3ba7 393d 2651 2f3d
00000220: 5af4 5cbd d827 7d3d c465 113c 5ad0 91bc
00000230: c3eb 793c d8ba 763d 9474 943d d97e 40bc
00000240: bd95 833d 535c dd3d 4869 2b3d a8a9 35bd
00000250: 3dc0 683d f476 623d c1fa ab3c bc42 373d
00000260: 40eb 18bd 7b15 1c3d 5cc8 ebbc 4c3d 92bc
00000270: fefc c63b ce53 83bc b311 a73c 9179 adbc
00000280: 3548 543c afd9 4c3d f29c 25bd cc7f 4fbd
00000290: 2955 ffbc e475 403d 7bca af3c f662 81bd
000002a0: d8ce c0bb 05f0 a03c 8187 193d 1a1d abbd
000002b0: 2b14 70bc 19f3 443d d162 bcbd 8201 4cbc
000002c0: 7e1d 32bb 8ffe dc3c b96b d43b 69ce e23c
000002d0: 8078 143d 4f4e a7bd d299 5e3d 6fe2 b1bd
000002e0: 0e7a 003d 5f59 e0bc af60 8a3c e39b 4f3d
000002f0: c369 733d d5db d33d 3b3a 6fbd e4d9 6dbd
00000300: 43fa b33c e9be cb3d 5c18 fb3c d7d2 6fbc
00000310: fc86 80bd 9248 083d 2b45 51ba 662f 09bd
00000320: c0bf 033d 60cb 503b 4dc5 4fbd a0ad 8dbc
00000330: f643 8ebd a75d a83c b591 ee3c b55d a83d
00000340: 1235 83bd 94f4 9dbd c240 d73c df43 2bbc
00000350: 9987 a0bd 5190 d9bd bc94 7abd 523c f13b
00000360: 620b ab3d 4cb0 54bd baca 873d 69fa a6bc
00000370: 1749 223a d4e3 9c3d 9f95 a6bd a6f6 2fbd
00000380: 72b9 24bc b5ca ccbb 7c79 b0bd 548a 3d3d
00000390: 25be a1bc 1eda cebd 1b91 ab3c bbf8 81bd
000003a0: a125 35bd 2715 023d ac32 5f3d 7f61 bebc
000003b0: ba9a 70bd 0029 5dbd 1e57 363d c0a7 e53c
000003c0: e9cc 843d 0c99 7ebc 7614 81b9 aab3 513d
000003d0: 8f6e aebc 40d3 a83d be4e b3bd 8372 2fbd
000003e0: 58fc 16bd 6293 bd3b 641c 95bd 30b9 6d3c
000003f0: 66d3 523c 216f 8e3d aa9c 2b3b a2ad 813d

neurons.4.bias f4 [128]
-0.061954908 -0.04536893 0.07618383 0.0719221 0.025835685 -0.018933032 0.03699638 -0.08289261
0.016233988 -0.08794826 0.0013718257 0.030463994 -0.057835322 0.05700451 0.055024438 0.086788975
-0.028539857 -0.08059057 0.03990966 -0.03917068 0.06952929 -0.06026673 -0.034205507 0.079100914
-0.03457517 -0.022825118 -0.05560033 -0.06017214 -0.041614443 0.01656731 -0.039275967 -0.07426379
0.06484795 -0.011511175 0.06406876 0.046198726 0.0048995875 -0.07798248 0.016091514 -0.0431907
-0.016591033 -0.056485042 0.048586696 -0.04474058 -0.042656556 0.016946496 0.0877031 -0.06589791
-0.060731247 -0.083537966 -0.06888282 0.03290613 0.061404184 0.049949873 0.023754422 0.0068136
-0.07021748 -0.07547681 -0.08572127 0.006142084 0.05840909 0.07784945 -0.012968725 0.02546428
0.040440544 0.031399697 -0.040132012 -0.084295355 0.05669876 -0.040253766 -0.004216237 0.023919888
0.025621817 0.058439862 -0.056145683 0.064837895 0.03800737 -0.0018378465 0.06424701 0.04356467
0.067756265 -0.029391488 0.061271716 0.01864721 -0.04663959 0.05020193 -0.0022655264 -0.072254345
0.019712951 0.07753348 -0.021794515 -0.041660577 -0.0032956167 -0.013683334 -0.019782577 0.08256156
-0.009001029 -0.02493353 0.07308403 -0.08941172 0.05790322 -0.050161127 0.06607409 0.06826731
-0.042191125 0.0540853 -0.07486218 -0.05641323 -0.010368053 -0.053705946 -0.08819237 -0.034487095
-0.051532198 -0.01118234 -0.024260266 0.0030963211 -0.059756555 0.071874544 -0.036755465 -0.07722522
0.072896354 -0.06339461 0.047555692 -0.075618446 -0.07894699 0.03204751 -0.010559354 0.0058035594
00000000: 6ec4 7dbd c5d4 39bd 4506 9c3d e54b 933d
00000010: 5ca5 d33c 7219 9bbc 8489 173d 9ac3 a9bd
00000020: 24fd 843c 381e b4bd d5ce b33a a08f f93c
00000030: bbe4 6cbd 907d 693d 4e61 613d 6bbe b13d
00000040: 6bcc e9bc ab0c a5bd 5078 233d 6f71 20bd
00000050: 5f65 8e3d 3fda 76bd 131b 0cbd a9ff a13d
00000060: b29e 0dbd befb babc 2cbd 63bd 1077 76bd
00000070: e873 2abd 2bb8 873c d6df 20bd 9d17 98bd
00000080: 01cf 843d 5e99 3cbc 7b36 833d e03a 3d3d
00000090: b88c a03b 47b5 9fbd 5ad2 833c bbe8 30bd
000000a0: ebe9 87bc dc5c 67bd d802 473d e641 37bd
000000b0: a4b8 2ebd 61d3 8a3c af9d b33d 7cf5 86bd
000000c0: 54c1 78bd f415 abbd 7012 8dbd 94c8 063d
000000d0: f482 7b3d 3d98 4c3d a298 c23c 9f44 df3b
000000e0: 2fce 8fbd 9693 9abd a28e afbd 8943 c93b
000000f0: 5f3e 6f3d 886f 9f3d c67a 54bc 779a d03c
00000100: fca4 253d f89c 003d 7761 24bd 0ba3 acbd
00000110: f53c 683d 22e1 24bd 5c28 8abb a4f3 c33c
00000120: d8e4 d13c a35e 6f3d 04f9 65bd bbc9 843d
00000130: 9ead 1b3d e5e3 f0ba f093 833d de70 323d
00000140: ccc3 8a3d 6bc6 f0bc 0df8 7a3d 09c2 983c
00000150: 2809 3fbd 8aa0 4d3d 3a79 14bb 16fa 93bd
00000160: 0e7d a13c e0c9 9e3d 698a b2bc 48a4 2abd
00000170: 46fb 57bb 1030 60bc 120f a2bc 0916 a93d
00000180: 0d79 13bc 6741 ccbc 14ad 953d 7e1d b7bd
00000190: ed2b 6d3d c175 4dbd da51 873d bbcf 8b3d
000001a0: 9ad0 2cbd 8c88 5d3d 5851 99bd 8f11 67bd
000001b0: c4de 29bc c4fa 5bbd 349e b4bd 5742 0dbd
000001c0: 6d13 53bd 2236 37bc 77bd c6bc a6eb 4a3b
000001d0: 4ac3 74bd f632 933d e68c 16bd 4228 9ebd
000001e0: af4a 953d 09d5 81bd c2c9 423d d8dd 9abd
000001f0: f6ae a1bd 4044 033d 2401 2dbc c92b be3b

neurons.6.weight f4 [128, 128]
0.009499298 0.07663452 -0.06434665 0.07523417 0.011063354 0.08693091 0.02245181 -0.06131395
0.08244734 -0.032491833 -0.010229453 -0.078329295 -0.039326217 0.06805635 0.021896092 -0.007837463
-0.031171817 0.06953697 -0.08062678 0.06335325 0.026981957 -0.07171524 0.021677926 -0.061724227
0.04694893 0.058871266 -0.044360198 0.0499548 -0.0553703 0.048002183 -0.09384919 -0.07609007
0.037120383 -0.085749865 -0.030433161 0.03902986 0.019519228 -0.066712946 0.058148194 0.079377204
0.056323987 -0.005848182 0.03168101 0.07238529 -0.018012473 -0.049113378 0.003509927 -0.08101852
0.043850705 0.08993659 -0.062197592 -0.043096714 0.019548357 -0.073337965 -0.016545147 0.024991613
-0.05186559 -0.071878396 -0.054662164 0.048668377 0.077618815 0.05185777 0.027308755 0.080329746
-0.07410539 0.08851222 0.07357374 -0.090847105 0.0701598 0.071632415 0.036320344 0.084195815
0.09823003 0.054020125 0.028702073 -0.10779961 -0.013824487 -0.03878938 -0.090403125 -0.009498569
-0.072934955 -0.075669505 -0.08266362 0.08557163 0.04957715 0.06285542 0.09462948 -0.049019136
0.00797224 -0.004293678 0.03367775 0.028865984 0.089216724 -0.023362502 0.07140787 -0.07047391
-0.040075153 -0.0635619 -0.019110803 0.07612382 0.07682717 0.00084218715 0.011474793 0.053057577
0.017762538 -0.030017616 -0.081829324 -0.07165846 0.015249963 -0.044922873 -0.05234243 -0.0495656
-0.016595362 0.020462645 0.015521977 -0.032973673 0.0010003902 -0.0012545438 0.038746692 0.058033172
0.023571135 -0.06755623 0.081645906 -0.023865605 -0.06378048 0.031850882 0.063929304 -0.074364774
0.015496193 0.07790905 -0.009313511 -0.027986947 -0.035513557 0.014990492 -0.07073564 0.03463794
-0.033091795 0.02822988 -0.059169773 -0.09414334 0.042250324 0.010151381 0.04076022 -0.0053713433
-0.07481582 -0.06554755 -0.033478312 -0.067491814 -0.020989392 -0.086117335 -0.048482165 -0.020374097
0.06779907 -0.038858715 -0.0875818 -0.0868542 0.06396144 -0.024703784 0.094794445 0.03118259
-0.07012389 0.08414232 0.000581049 0.0634104 -0.06477158 0.08445868 -0.061219443 0.10340436
0.012321829 -0.07754285 0.10565079 -0.010905748 0.036538724 -0.018944848 0.04532641 0.09506068
-0.009572231 -0.041427355 -0.019260092 0.039463278 -0.066762514 0.0608092 0.091344774 -0.09194324
-0.053978574 -0.0006974195 0.03298212 -0.032107916 -0.018479541 -0.08045135 -0.00022720794 -0.038953673
0.066369876 -0.02064971 -0.06634035 -0.021511836 -0.0061514103 -0.07723591 0.08303544 -0.0051855235
-0.078569815 0.04404298 -0.02575266 -0.049292993 -0.06267874 -0.049101107 0.05146613 -0.07222399
-0.021474255 -0.056241233 0.030255921 0.052899797 -0.018044485 0.07701105 0.02887644 0.10002406
0.010539583 0.048812274 -0.09870412 -0.039718673 0.06832416 0.004005263 0.05258748 -0.06225102
-0.05641175 0.076483764 0.02846214 -0.046460204 -0.007475315 -0.061730567 -0.07026816 0.02345845
0.09768476 0.049419086 0.08252952 0.07057816 -0.024046319 0.011489464 0.0025505577 0.03335081
-0.06038427 0.07882059 -0.019201335 -0.02532535 -0.04106418 -0.047006078 0.1055625 0.04007804
-0.009684919 0.050293226 0.040641762 0.01905422 0.088487454 -0.07387254 -0.040361807 0.039588682
00000000: f2a2 1b3c 8ff2 9c3d 2dc8 83bd 5f14 9a3d
00000010: 1243 353c d508 b23d dcec b73c 5624 7bbd
00000020: 27da a83d 2816 05bd 7099 27bc 1c6b a0bd
00000030: 8714 21bd 2161 8b3d 6f5f b33c b468 00bc
00000040: 0a5c ffbc 6669 8e3d a71f a5bd 59bf 813d
00000050: 4409 dd3c 71df 92bd e895 b13c 8bd2 7cbd
00000060: 854d 403d ff22 713d 0ab3 35bd 689d 4c3d
00000070: f8cb 62bd f09d 443d 0134 c0bd 1cd5 9bbd
00000080: 8b0b 183d a09d afbd f74e f9bc c6dd 1f3d
00000090: cae6 9f3c cca0 88bd cd2c 6e3d 8490 a23d
000000a0: fbb3 663d 1ba2 bfbb f2c3 013d bd3e 943d
000000b0: e58e 93bc 1c2b 49bd ce06 663b 0aed a5bd
000000c0: cc9c 333d ad30 b83d e7c2 7ebd 2e86 30bd
000000d0: e023 a03c 3732 96bd b089 87bc 36bb cc3c
000000e0: 0371 54bd fb34 93bd 6fe5 5fbd 7e58 473d
000000f0: 9df6 9e3d d068 543d 9cb6 df3c ec83 a43d
00000100: 91c4 97bd e545 b53d d4ad 963d 0c0e babd
00000110: f1af 8f3d 04b4 923d a4c4 143d db6e ac3d
00000120: d32c c93d 3544 5d3d 9c20 eb3c 0bc6 dcbd
00000130: 1a80 62bc 9de1 1ebd 4625 b9bd e39f 1bbc
00000140: ec5e 95bd 9df8 9abd 8b4b a9bd 2e40 af3d
00000150: 6911 4b3d 58ba 803d 1acd c13d 4ac8 48bd
00000160: 009e 023c fbb1 8cbb aef1 093d 5b78 ec3c
00000170: 42b7 b63d b862 bfbc 4a3e 923d a054 90bd
00000180: d825 24bd be2c 82bd 428e 9cbc cee6 9b3d
00000190: 9057 9d3d 39c6 5c3a c500 3c3c e752 593d
000001a0: be82 913c 81e7 f5bc 2296 a7bd acc1 92bd
000001b0: fbda 793c 0c01 38bd 0465 56bd 4c05 4bbd
000001c0: fff2 87bc 47a1 a73c e44f 7e3c 670f 07bd
000001d0: 861f 833a 816f a4ba dab4 1e3d 31b4 6d3d
000001e0: 4118 c13c ec5a 8abd f835 a73d cd81 c3bc
000001f0: 579f 82bd 1276 023d 5eed 823d 8f4c 98bd
00000200: bfe3 7d3c c88e 9f3d b297 18bc e244 e5bc
00000210: aa76 11bd ae9a 753c d9dd 90bd 83e0 0d3d
00000220: 438b 07bd 5942 e73c 015c 72bd 39ce c0bd
00000230: ad0e 2d3d fa51 263c 30f4 263d 1802 b0bb
00000240: 0939 99bd cb3d 86bd 8e20 09bd 2639 8abd
00000250: f2f1 abbc 495e b0bd 3c95 46bd 94e7 a6bc
00000260: 3dda 8a3d 512a 1fbd 165e b3bd 9de0 b1bd
00000270: 37fe 823d 975f cabc 9723 c23d a272 ff3c
00000280: 1d9d 8fbd cf52 ac3d 8a51 183a 50dd 813d
00000290: f6a6 84bd acf8 ac3d 3dc1 7abd aac5 d33d
000002a0: 7fe1 493c c9ce 9ebd 715f d83d 06ae 32bc
000002b0: a1a9 153d 3a32 9bbc 30a8 393d 2caf c23d
000002c0: d9d4 1cbc bbaf 29bd 57c7 9dbc 3fa4 213d
000002d0: c9ba 88bd 1113 793d f812 bb3d bd4c bcbd
000002e0: a318 5dbd 08d3 36ba 4218 073d 9783 03bd
000002f0: 6862 97bc adc3 a4bd ab3e 6eb9 e38d 1fbd
00000300: eeec 873d 9529 a9bc 73dd 87bd 9739 b0bc
00000310: c591 c9bb dc2d 9ebd 7c0e aa3d 53eb a9bb
00000320: 36e9 a0bd 6966 343d 3ef7 d2bc 73e7 49bd
00000330: b65d 80bd 3e1e 49bd 26ce 523d 2cea 93bd
00000340: c7ea afbc 355d 66bd 44db f73c 75ad 583d
00000350: 07d2 93bc f8b7 9d3d 498e ec3c 6ad9 cc3d
00000360: 37ae 2c3c 61ef 473d 6325 cabd 0cb0 22bd
00000370: 8aed 8b3d 953e 833b f865 573d edfa 7ebd
00000380: 0210 67bd 85a3 9c3d 6f29 e93c 0e4d 3ebd
00000390: 7df3 f4bb 31d9 7cbd c1e8 8fbd ef2b c03c
000003a0: f30e c83d ab6b 4a3d 3d05 a93d 488b 903d
000003b0: c9fc c4bc 4e3e 3c3c 4227 273b dc9a 083d
000003c0: 7f55 77bd b16c a13d 1e4c 9dbc 1c77 cfbc
000003d0: ea32 28bd 7289 40bd 2731 d83d df28 243d
000003e0: 7fad 1ebc 4500 4e3d fa77 263d 9817 9c3c
000003f0: e938 b53d 7c4a 97bd 6c52 25bd be27 223d

neurons.6.bias f4 [128]
0.008046901 0.060433324 0.035617553 0.003660856 0.03591888 0.038208008 0.04120878 -0.03356898
0.092123196 0.0533518 0.08025192 -0.016501363 -0.02615986 -0.075921044 0.07846332 0.06794895
0.042729586 0.0013168765 -0.053581912 -0.023665339 0.008613745 0.040498734 0.023767991 0.00821503
0.06964427 -0.0172212 0.01405218 -0.024942683 0.083109155 -0.07473478 0.03265965 -0.049623888
-0.079822294 0.05422007 -0.09572902 -0.08362412 -0.031165302 0.02594378 -0.057919025 0.08748567
0.02601168 0.032013923 -0.009320997 0.019452738 -0.015569667 0.08843659 -0.084187016 -0.03339998
-0.018844793 0.08590321 -0.032455754 -0.07449328 -0.03996243 -0.028153736 -0.008659151 0.04405395
0.07102324 0.025994856 -0.0068569942 -0.07807556 -0.012798367 0.016532699 0.064778276 -0.012755934
-0.027908977 0.084690176 -0.01407984 -0.037358284 0.0010819307 0.007157931 0.086022 0.006317174
-0.0520716 0.04067804 -0.006362629 0.07203871 -0.03602628 0.0032075031 -0.045019984 0.0537076
-0.05148149 0.06905184 0.02720114 0.06377201 0.04504621 -0.039892495 0.06748633 -0.08353701
0.04720542 0.007823749 0.085160494 -0.05789668 -0.07898321 0.041732877 -0.056509387 -0.06390453
-0.027955445 0.07789092 0.04182675 0.048922393 -0.036954015 -0.035628393 0.023760155 -0.009291528
0.08177201 -0.0034751857 -0.039273825 -0.049213327 -0.07661517 0.017284628 0.00043212008 0.039645363
-0.03571932 -0.07762364 0.002233155 -0.09087512 -0.054285977 -0.0020261477 -0.0668348 0.0040491126
0.0061502066 -0.04663231 -0.008529992 0.0054640803 0.020010674 0.015169434 -0.012161736 0.0048895325
00000000: 26d7 033c ef88 773d b6e3 113d f9ea 6f3b
00000010: ad1f 133d 0080 1c3d 8aca 283d a07f 09bd
00000020: 16ab bc3d 6b87 5a3d 1e5b a43d de2d 87bc
00000030: 344d d6bc 7e7c 9bbd 61b1 a03d d228 8b3d
00000040: 3805 2f3d 0b9b ac3a b578 5bbd d0dd c1bc
00000050: aa20 0d3c 00e2 253d 17b5 c23c 5598 063c
00000060: a8a1 8e3d 7913 8dbc 1d3b 663c 9954 ccbc
00000070: 2235 aa3d 8c0e 99bd 20c6 053d 6b42 4bbd
00000080: df79 a3bd dd15 5e3d 940d c4bd 1f43 abbd
00000090: 604e ffbc 0d88 d43c 803c 6dbd b02b b33d
000000a0: 7216 d53c 0821 033d 18b7 18bc 595b 9f3c
000000b0: eb17 7fbc 3e1e b53d 3e6a acbd 6bce 08bd
000000c0: 6560 9abc 06ee af3d 53f0 04bd ef8f 98bd
000000d0: a5af 23bd aaa2 e6bc 1ddf 0dbc ea71 343d
000000e0: a274 913d 2af3 d43c a3b0 e0bb 14e6 9fbd
000000f0: 3eb0 51bc 956f 873c 79aa 843d 44fe 50bc
00000100: 5ea1 e4bc 0b72 ad3d 21af 66bc 0005 19bd
00000110: 92cf 8d3a 148d ea3b 4d2c b03d 4c00 cf3b
00000120: 0849 55bd 049e 263d 9a7d d0bb 0889 933d
00000130: 4b90 13bd f934 523b e066 38bd 80fc 5b3d
00000140: 41de 52bd 0d6b 8d3d edd4 de3c e69a 823d
00000150: 6082 383d 5066 23bd 4636 8a3d 7415 abbd
00000160: 785a 413d 2f2f 003c a068 ae3d 1225 6dbd
00000170: f3c1 a1bd 18f0 2a3d 6376 67bd 61e0 82bd
00000180: d102 e5bc 4685 9f3d 8752 2b3d d962 483d
00000190: 185d 17bd 14ef 11bd a8a4 c23c 7e3b 18bc
000001a0: 1578 a73d f1bf 63bb 97dd 20bd ea93 49bd
000001b0: 6ae8 9cbd 7e98 8d3c 2d8e e239 2d63 223d
000001c0: 6c4e 12bd 25f9 9ebd 205a 123b bc1c babd
000001d0: f95a 5ebd 1ec9 04bb afe0 88bd 6bae 843b
000001e0: ac87 c93b 8501 3fbd 61c1 0bbc 070c b33b
000001f0: 6ded a33c 3889 783c 0542 47bc 5f38 a03b

neurons.8.weight f4 [128, 128]
-0.07550618 -0.016220747 -0.050659228 -0.021304905 -0.04864584 0.04800738 -0.0820267 -0.018521633
0.011023528 -0.024964992 0.040985413 0.035569444 0.04950214 -0.027019918 0.039551515 -0.071298294
0.022346504 -0.031253725 0.05583778 0.08833602 -0.03223345 -0.0041753496 0.03519467 -0.08544101
0.056411527 -0.025211325 -0.058295768 0.08254345 0.033427548 0.06631636 -0.03334461 -0.044996627
0.03652158 -0.005454395 0.07927754 -0.055788293 -0.0669993 -0.010768915 0.011104911 -0.08523249
0.08591404 -0.0653665 0.06950317 0.0779747 -0.032459598 0.06345448 0.039398495 -0.07493529
-0.06030428 0.077270344 -0.022025418 -0.01654372 0.02770358 -0.07148662 -0.0681388 0.058808673
0.04043064 0.024859553 -0.06978628 -0.080931716 0.08084138 -0.057759978 -0.026093576 0.07092131
-0.008525541 0.06646365 0.076973036 -0.038137212 0.06891418 0.031184934 -0.00044624074 -0.089070804
0.05328274 0.05822007 0.07448556 0.006646801 0.013716758 -0.061784275 0.039426304 -0.014999975
-0.04498605 -0.00768314 -0.05981378 -0.037162043 -0.0076992586 -0.03395792 0.087939106 0.013402828
-0.038862485 0.068952985 -0.056459736 0.06475019 0.018763963 0.026673457 0.07755919 -0.061088745
0.004946833 -0.033633105 -0.08067131 -0.014400329 0.013366948 -0.03722562 0.01774582 0.07906852
0.0025402678 -0.018214568 0.035035092 0.07072949 -0.08848896 -0.08724014 -0.059021994 -0.05103744
-0.08228611 -0.032457706 -0.056536607 0.04558008 0.039509773 0.024538856 0.008413066 0.049939256
0.050965417 0.013525688 0.01469517 -0.07472115 0.07412621 0.059910648 0.07495866 0.06007345
0.056403276 -0.06994766 -0.05051955 -0.021064188 0.051258814 -0.03710344 -0.057596482 -0.02944012
0.060916133 0.00203094 0.046755776 -0.05874265 0.018314248 0.042568315 -0.060284078 0.07649825
-0.058802493 0.08525592 -0.08563059 0.0669017 0.025741223 -0.07594868 -0.01153218 0.015528135
0.07412994 -0.039662346 -0.06634366 0.063078664 -0.087744154 0.022902418 -0.035936747 0.013003739
0.04593186 -0.07313971 -0.030429643 0.068625055 -0.02355432 -0.06809012 0.0737207 0.047663633
-0.07476505 0.015803037 0.025362995 -0.0741835 -0.052547593 -0.08382652 0.044324182 0.027942905
-0.057793453 0.014960043 0.009882845 -0.07101117 -0.06632801 -0.07909608 -0.049944863 0.01041269
-0.053266343 0.034439836 -0.08517277 0.02497333 0.036273643 -0.043939915 0.015768759 -0.0617026
-0.05915234 0.052980393 -0.02757386 -0.026908176 -0.06153812 0.0418679 0.075135335 0.02983302
0.08405102 0.01086148 0.07408478 -0.048744574 -0.06565457 -0.057816107 0.0044383937 0.050210066
0.025251733 -0.031503182 0.06478873 0.0393018 -0.090287045 -0.09636332 0.005793418 -0.013298745
0.03055027 0.026348393 0.07747308 0.013109683 -0.033458345 -0.027907215 -0.0032708421 0.05866631
0.050374974 -0.029580228 0.009681882 0.07029447 -0.042933006 0.07990447 0.055731237 -0.02768231
0.054855037 -0.062323336 -0.081332445 -0.06464944 0.078166135 -0.08789684 0.05640951 -0.017613465
0.013981843 0.06177307 0.040117454 0.08163326 0.024010183 -0.0665349 0.0018010547 0.023288036
-0.023237817 -0.01210798 -0.08909537 0.0011744491 0.06318553 -0.030321365 0.03769385 0.022990564
00000000: fca2 9abd 5fe1 84bc 0d80 4fbd a087 aebc
00000010: dc40 47bd 63a3 443d 9dfd a7bd aeba 97bc
00000020: 079c 343c 6283 ccbc 52e0 273d 44b1 113d
00000030: c2c2 4a3d e058 ddbc c500 223d d704 92bd
00000040: 0410 b73c e803 00bd 28b6 643d 84e9 b43d
00000050: 3907 04bd 5fd1 88bb 4928 103d b2fb aebd
00000060: c60f 673d fb87 cebc 8bc7 6ebd 8a0c a93d
00000070: 53eb 083d dfd0 873d 5c94 08bd 624e 38bd
00000080: a797 153d c8ba b2bb 435c a23d 4482 64bd
00000090: ee36 89bd 1a70 30bc 5ff1 353c 5f8e aebd
000000a0: b3f3 af3d dfde 85bd ae57 8e3d 33b1 9f3d
000000b0: 5bf4 04bd 6cf4 813d 5160 213d ac77 99bd
000000c0: 9f01 77bd ea3f 9e3d a66e b4bc b286 87bc
000000d0: 9ef2 e23c 9467 92bd 5b8c 8bbd 5de1 703d
000000e0: 999a 253d 43a6 cb3c 1cec 8ebd 87bf a5bd
000000f0: 2a90 a53d ba95 6cbd 32c2 d5bc 313f 913d
00000100: b6ae 0bbc 181e 883d 0aa4 9d3d c435 1cbd
00000110: e122 8d3d 8c77 ff3c 6bf5 e9b9 c16a b6bd
00000120: 013f 5a3d 2b78 6e3d e38b 983d 68cd d93b
00000130: 41bc 603c 8211 7dbd 7a7d 213d 75c2 75bc
00000140: 4b43 38bd dac2 fbbb 4bff 74bd 3a37 18bd
00000150: 104a fcbb 7617 0bbd 6b19 b43d 8997 5b3c
00000160: 452e 1fbd 3937 8d3d 5342 67bd bf9b 843d
00000170: e2b6 993c 4b82 da3c 5ad7 9e3d 3138 7abd
00000180: 0b19 a23b dec2 09bd 0037 a5bd 5cef 6bbc
00000190: 0b01 5b3c e479 18bd af5f 913c adee a13d
000001a0: 9f7a 263b b836 95bc f580 0f3d 9fda 903d
000001b0: b339 b5bd f5aa b2bd 0cc1 71bd a20c 51bd
000001c0: 9f85 a8bd 5ff2 04bd ee92 67bd 2eb2 3a3d
000001d0: 00d5 213d b605 c93c f5d6 093c 1b8d 4c3d
000001e0: 1dc1 503d d99a 5d3c 03c4 703c 6707 99bd
000001f0: 7bcf 973d de64 753d ed83 993d 940f 763d
00000200: 1f07 673d b840 8fbd 96ed 4ebd ce8e acbc
00000210: c3f4 513d c7f9 17bd 4aea 6bbd 682c f1bc
00000220: 3283 793d 8519 053b fc82 3f3d 229c 70bd
00000230: c307 963c 1d5c 2e3d 70ec 76bd 1dab 9c3d
00000240: e2da 70bd a89a ae3d 175f afbd c203 893d
00000250: 42df d23c fb8a 9bbd 78f1 3cbc b869 7e3c
00000260: 70d1 973d fc74 22bd 2fdf 87bd 632f 813d
00000270: 35b3 b3bd da9d bb3c 6932 13bd a20d 553c
00000280: 0c23 3c3d 46ca 95bd 9647 f9bc 4b8b 8c3d
00000290: fdf4 c0bc d572 8bbd e1fa 963d f13a 433d
000002a0: 6b1e 99bd 5f75 813c 0ec6 cf3c 85ed 97bd
000002b0: 253c 57bd 3dad abbd 468d 353d 85e8 e43c
000002c0: d4b8 6cbd f81a 753c a8eb 213c 4e6e 91bd
000002d0: fbd6 87bd 20fd a1bd fc92 4cbd fd99 2a3c
000002e0: cf2d 5abd c910 0d3d 106f aebd de94 cc3c
000002f0: ac93 143d 57fa 33bd 7c2d 813c debb 7cbd
00000300: b949 72bd f801 593d 93e2 e1bc 896e dcbc
00000310: 650f 7cbd ad7d 2b3d 8ee0 993d 6164 f43c
00000320: f122 ac3d 59f4 313c c3b9 973d 64a8 47bd
00000330: e775 86bd 95d0 6cbd f26f 913b 12a9 4d3d
00000340: b9dc ce3c 7b09 01bd f4af 843d edfa 203d
00000350: 6ae8 b8bd 225a c5bd b6d6 bd3b fbe2 59bc
00000360: 8f44 fa3c 96d8 d73c 35aa 9e3d ffc9 563c
00000370: 9e0b 09bd ac9d e4bc a05b 56bb 164c 703d
00000380: fd55 4e3d 3c52 f2bc c2a0 1e3c 8cf6 8f3d
00000390: 85da 2fbd f4a4 a33d 7046 643d 03c6 e2bc
000003a0: adaf 603d c146 7fbd a091 a6bd ed66 84bd
000003b0: 9115 a03d 4203 b4bd a90d 673d 1d4a 90bc
000003c0: 1a14 653c c205 7d3d 3352 243d 572f a73d
000003d0: 01b1 c43c 7343 88bd 5e11 ec3a 8dc6 be3c
000003e0: 3c5d bebc 8d60 46bc a277 b6bd f9ef 993a
000003f0: 6a67 813d 8364 f8bc de64 1a3d b556 bc3c

neurons.8.bias f4 [128]
0.07307058 -0.051929012 -0.05074617 0.07136599 0.0309842 0.036925223 0.055352997 0.08536323
-0.064373635 -0.0442956 0.09710141 -0.01452204 0.037243996 -0.018789008 -0.06800198 -0.036818493
0.003169334 0.019006677 -0.030774409 0.0026674476 0.052601192 -0.081006885 0.024788281 0.048336983
-0.015724026 -0.07583579 -0.00905833 0.08155542 0.04433132 0.033609092 0.037434105 -0.013755788
-0.054600637 0.039674275 0.09500399 -0.07926564 0.012320278 0.036697567 -0.041462533 0.07707979
-0.054477587 0.10999137 0.07413521 0.028853709 -0.041759856 0.035528414 -0.00027003977 -0.061809123
0.07713175 -0.05531942 0.07522826 0.020726591 0.055180404 0.088371605 -0.0061233058 -0.02184944
0.058340725 0.0040008873 -0.03713263 0.032558244 0.02198971 -0.030202353 -0.047414746 0.025875295
-0.020474864 -0.032215163 0.017753875 0.07373452 0.05865662 0.042069294 0.07510445 -0.026992118
-0.035486136 -0.004870114 0.022022309 -0.027980208 -0.0077960747 -0.068967335 -0.057128754 -0.060040347
-0.023752548 0.04232532 -0.010617289 0.08300874 -0.0754995 0.029150376 -0.02363945 -0.004179326
-0.016450394 0.025284288 0.060980655 -0.052875984 -0.012481145 0.09309164 0.024715843 0.02526838
-0.06742708 0.065168306 0.0065291994 0.06445352 -0.06466928 0.04040449 0.02365615 0.056107968
-0.07684769 0.03052642 -0.078914635 -0.068635836 -0.022056688 -0.0030943926 0.05396136 -0.023105638
-0.0070747747 0.096471846 0.0030333446 0.04693432 -0.08772645 -0.06261175 0.07199233 -0.06246264
-0.08297361 -0.016984465 -0.022849087 0.00039529524 -0.0075420802 -0.04214843 0.105458066 -0.05256275
00000000: 07a6 953d 84b3 54bd 37db 4fbd 5528 923d
00000010: 94d2 fd3c e73e 173d d3b9 623d ebd2 ae3d
00000020: 53d6 83bd 4e6f 35bd 1bdd c63d daed 6dbc
00000030: 298d 183d 68eb 99bc 9f44 8bbd fdce 16bd
00000040: 9ab4 4f3b e4b3 9b3c 9d1a fcbc 58d0 2e3b
00000050: 5974 573d f0e6 a5bd cb10 cb3c 00fd 453d
00000060: accf 80bc cb4f 9bbd 6469 14bc 8706 a73d
00000070: c294 353d b0a9 093d 8154 193d f55f 61bc
00000080: eba4 5fbd 7e81 223d 7491 c23d 0656 a2bd
00000090: feda 493c 3050 163d 9ed4 29bd 02dc 9d3d
000000a0: e423 5fbd 2843 e13d 33d4 973d 9d5e ec3c
000000b0: 620c 2bbd 3e86 113d 2094 8db9 902b 7dbd
000000c0: 40f7 9d3d 9e96 62bd 4611 9a3d d0ca a93c
000000d0: d904 623d 2cfc b43d 03a6 c8bb 99fd b2bc
000000e0: aff6 6e3d e019 833b 6218 18bd cb5b 053d
000000f0: c423 b43c ed6a f7bc f735 42bd 6df8 d33c
00000100: e7ba a7bc 0cf4 03bd 9370 913c 2002 973d
00000110: ed41 703d da50 2c3d 5dd0 993d 931e ddbc
00000120: e959 11bd 7a95 9fbb 2168 b43c c036 e5bc
00000130: 3776 ffbb bf3e 8dbd d7ff 69bd deec 75bd
00000140: b494 c2bc 515d 2d3d 23f4 2dbc 7c00 aa3d
00000150: 7b9f 9abd c5cc ee3c 85a7 c1bc baf2 88bb
00000160: fac2 86bc ff20 cf3c dac6 793d 7d94 58bd
00000170: b77d 4cbc d4a6 be3d e178 ca3c a2ff ce3c
00000180: 3517 8abd f676 853d e5f2 d53b 3500 843d
00000190: 5471 84bd 2e7f 253d 8bca c13c 78d1 653d
000001a0: 5262 9dbd 8b12 fa3c ff9d a1bd f290 8cbd
000001b0: 3ab0 b4bc 4bcb 4abb 9606 5d3d 0948 bdbc
000001c0: 83d3 e7bb 0893 c53d 14cb 463b 343e 403d
000001d0: eda9 b3bd 973a 80bd b770 933d d3d8 7fbd
000001e0: 11ee a9bd 0123 8bbc 022e bbbc a13f cf39
000001f0: 8e23 f7bb d5a3 2cbd 66fa d73d 0a4c 57bd
